…
}],"key":"WrQQULKMYz"},{"type":"block","kind":"notebook-code","children":[{"type":"code","lang":"python","executable":true,"value":"model = UNet1D()\nmodel.load_state_dict(torch.load(\"../Loic/UNet/model_weights_eq_only_v2.pt\",weights_only=True, map_location=torch.device('cpu')))\nmodel.eval() ","key":"rDyp11lUfY"},{"type":"outputs","id":"yHhzoHchSugAmHJcSrDbM","children":[{"type":"output","jupyter_data":{"output_type":"execute_result","execution_count":64,"metadata":{},"data":{"text/plain":{"content":"UNet1D(\n  (downs): ModuleList(\n    (0): ConvBlock(\n      (conv): Sequential(\n        (0): Conv1d(3, 16, kernel_size=(3,), stride=(1,), padding=(1,))\n        (1): ReLU()\n        (2): Conv1d(16, 16, kernel_size=(3,), stride=(1,), padding=(1,))\n        (3): ReLU()\n      )\n    )\n    (1): ConvBlock(\n      (conv): Sequential(\n        (0): Conv1d(16, 32, kernel_size=(3,), stride=(1,), padding=(1,))\n        (1): ReLU()\n        (2): Conv1d(32, 32, kernel_size=(3,), stride=(1,), padding=(1,))\n        (3): ReLU()\n      )\n    )\n    (2): ConvBlock(\n      (conv): Sequential(\n        (0): Conv1d(32, 64, kernel_size=(3,), stride=(1,), padding=(1,))\n        (1): ReLU()\n        (2): Conv1d(64, 64, kernel_size=(3,), stride=(1,), padding=(1,))\n        (3): ReLU()\n      )\n    )\n    (3): ConvBlock(\n      (conv): Sequential(\n        (0): Conv1d(64, 128, kernel_size=(3,), stride=(1,), padding=(1,))\n        (1): ReLU()\n        (2): Conv1d(128, 128, kernel_size=(3,), stride=(1,), padding=(1,))\n        (3): ReLU()\n      )\n    )\n  )\n  (ups): ModuleList(\n    (0): ConvTranspose1d(256, 128, kernel_size=(2,), stride=(2,))\n    (1): ConvBlock(\n      (conv): Sequential(\n        (0): Conv1d(256, 128, kernel_size=(3,), stride=(1,), padding=(1,))\n        (1): ReLU()\n        (2): Conv1d(128, 128, kernel_size=(3,), stride=(1,), padding=(1,))\n        (3): ReLU()\n      )\n    )\n    (2): ConvTranspose1d(128, 64, kernel_size=(2,), stride=(2,))\n    (3): ConvBlock(\n      (conv): Sequential(\n        (0): Conv1d(128, 64, kernel_size=(3,), stride=(1,), padding=(1,))\n        (1): ReLU()\n        (2): Conv1d(64, 64, kernel_size=(3,), stride=(1,), padding=(1,))\n        (3): ReLU()\n      )\n    )\n    (4): ConvTranspose1d(64, 32, kernel_size=(2,), stride=(2,))\n    (5): ConvBlock(\n      (conv): Sequential(\n        (0): Conv1d(64, 32, kernel_size=(3,), stride=(1,), padding=(1,))\n        (1): ReLU()\n        (2): Conv1d(32, 32, kernel_size=(3,), stride=(1,), padding=(1,))\n        (3): ReLU()\n      )\n    )\n    (6): ConvTranspose1d(32, 16, kernel_size=(2,), stride=(2,))\n    (7): ConvBlock(\n      (conv): Sequential(\n        (0): Conv1d(32, 16, kernel_size=(3,), stride=(1,), padding=(1,))\n        (1): ReLU()\n        (2): Conv1d(16, 16, kernel_size=(3,), stride=(1,), padding=(1,))\n        (3): ReLU()\n      )\n    )\n  )\n  (bottleneck): ConvBlock(\n    (conv): Sequential(\n      (0): Conv1d(128, 256, kernel_size=(3,), stride=(1,), padding=(1,))\n      (1): ReLU()\n      (2): Conv1d(256, 256, kernel_size=(3,), stride=(1,), padding=(1,))\n      (3): ReLU()\n    )\n  )\n  (final_conv): Conv1d(16, 3, kernel_size=(1,), stride=(1,))\n)","content_type":"text/plain"}}},"children":[],"key":"X2TvWuOZD0"}],"key":"SY7a35UoW3"}],"key":"AWzVaMk5km"},{"type":"block","kind":"notebook-content","children":[{"type":"heading","depth":2,"position":{"start":{"line":1,"column":1},"end":{"line":1,"column":1}},"children":[{"type":"text","value":"3. Load and preprocess MiniSEED waveform data","position":{"st
…
