…
ode","lang":"python","executable":true,"value":"summary(model, input_size=(1, 3, 3000))","key":"s7UBPWTxWD"},{"type":"outputs","id":"Zi1GdN6vcLZtI96pjKP8z","children":[{"type":"output","jupyter_data":{"output_type":"execute_result","execution_count":4,"metadata":{},"data":{"text/plain":{"content":"==========================================================================================\nLayer (type:depth-idx)                   Output Shape              Param #\n==========================================================================================\nUNet1D                                   [1, 3, 3000]              --\n├─ModuleList: 1-1                        --                        --\n│    └─ConvBlock: 2-1                    [1, 16, 3000]             --\n│    │    └─Sequential: 3-1              [1, 16, 3000]             944\n│    └─ConvBlock: 2-2                    [1, 32, 1500]             --\n│    │    └─Sequential: 3-2              [1, 32, 1500]             4,672\n│    └─ConvBlock: 2-3                    [1, 64, 750]              --\n│    │    └─Sequential: 3-3              [1, 64, 750]              18,560\n│    └─ConvBlock: 2-4                    [1, 128, 375]             --\n│    │    └─Sequential: 3-4              [1, 128, 375]             73,984\n├─ConvBlock: 1-2                         [1, 256, 187]             --\n│    └─Sequential: 2-5                   [1, 256, 187]             --\n│    │    └─Conv1d: 3-5                  [1, 256, 187]             98,560\n│    │    └─ReLU: 3-6                    [1, 256, 187]             --\n│    │    └─Conv1d: 3-7                  [1, 256, 187]             196,864\n│    │    └─ReLU: 3-8                    [1, 256, 187]             --\n├─ModuleList: 1-3                        --                        --\n│    └─ConvTranspose1d: 2-6              [1, 128, 374]             65,664\n│    └─ConvBlock: 2-7                    [1, 128, 375]             --\n│    │    └─Sequential: 3-9              [1, 128, 375]             147,712\n│    └─ConvTranspose1d: 2-8              [1, 64, 750]              16,448\n│    └─ConvBlock: 2-9                    [1, 64, 750]              --\n│    │    └─Sequential: 3-10             [1, 64, 750]              36,992\n│    └─ConvTranspose1d: 2-10             [1, 32, 1500]             4,128\n│    └─ConvBlock: 2-11                   [1, 32, 1500]             --\n│    │    └─Sequential: 3-11             [1, 32, 1500]             9,280\n│    └─ConvTranspose1d: 2-12             [1, 16, 3000]             1,040\n│    └─ConvBlock: 2-13                   [1, 16, 3000]             --\n│    │    └─Sequential: 3-12             [1, 16, 3000]             2,336\n├─Conv1d: 1-4                            [1, 3, 3000]              51\n==========================================================================================\nTotal params: 677,235\nTrainable params: 677,235\nNon-trainable params: 0\nTotal mult-adds (Units.MEGABYTES): 257.17\n==========================================================================================\nInput size (MB): 0.04\nForward/backward pass size (MB): 8.52\nParams size (MB): 2.71\nEstimated 
…
